lang_classifier.model.pt (torch, 229723 bytes, 8 tensors)

input_layer.0.weight f4 [10, 5591]
0	0x3eec4d5d	0.46152773
1	0x3c27f619	0.010251545
2	0xbd7e6feb	-0.062118452
3	0x3dd90a17	0.105976276
4	0x3ea5612e	0.32300705
5	0xbdfce9d7	-0.12349289
6	0x3e0fd3cd	0.1404564
7	0xbd09a16f	-0.03360122
8	0xbe194747	-0.14968596
9	0xbd4d206f	-0.05007976
10	0x3b8148d6	0.0039454503
11	0xbdb7897d	-0.08961771
12	0xbc304304	-0.010758165
13	0xbea62c12	-0.32455498
14	0x3c3dee7f	0.011592506
15	0x3eada38f	0.33913848
16	0xbe310bae	-0.17289612
17	0xbe541136	-0.2070969
18	0x3e831614	0.25602782
19	0x3b812147	0.0039407345
20	0x3e87a008	0.26489282
21	0xbe8059cc	-0.2506851
22	0x3e55503f	0.20831393
23	0x3da593b8	0.08084816
24	0x3ea3180b	0.3185428
25	0xbb9a240d	-0.0047040046
26	0x3e22b6f1	0.15890099
27	0xbd3fe3a5	-0.046847958
28	0x3d2fcc10	0.04291922
29	0x3eb5d5d9	0.35514715
30	0xbd05fa84	-0.032709613
31	0xbd5248e3	-0.05133904
32	0x3e790078	0.24316585
33	0xbd8db9a1	-0.069201715
34	0x3cbc2276	0.022965651
35	0xbdefeaed	-0.117147304
36	0x3e922b86	0.2854883
37	0xbd91c0f4	-0.07116881
38	0xbd5c0e84	-0.05372478
39	0xbd5a6046	-0.05331447
40	0x3da20c89	0.07912547
41	0x3e22d548	0.15901673
42	0xbc7ff343	-0.015621963
43	0xbdbd9f33	-0.092588805
44	0x3d2b677c	0.041846737
45	0x3d93a20d	0.07208643
46	0x3b7e3cb4	0.0038793506
47	0x3e8650e0	0.26233578
48	0x3e834a33	0.25642547
49	0x3ea7ff88	0.32812142
50	0x3d5966a4	0.0530764
51	0xbd9448bf	-0.07240438
52	0x3e6a69dc	0.22891945
53	0x3e388411	0.1801913
54	0x3e9cb10b	0.30603823
55	0x3e89f7a3	0.26946744
56	0xbcccae5c	-0.024985485
57	0x3e7b20de	0.24524257
58	0x3e0a3edb	0.1350054
59	0xbc5ebdaa	-0.013595024
60	0x3db17227	0.08664351
61	0x3ded0198	0.115725696
62	0xbe1ae54e	-0.15126535
63	0x3da66ba4	0.081259996
64	0xbd9c3ad3	-0.07628407
65	0xbd0bd9b2	-0.034143157
66	0x3dee285e	0.11628793
67	0xbcbbe703	-0.022937303
68	0x3e9d7b5f	0.30758187
69	0x3dfec1dc	0.124393195
70	0x3e036740	0.12832355
71	0x3e9ed206	0.3101961
72	0xbdf21d18	-0.118219554
73	0x3c84acd0	0.016195685
74	0xbdc0aba1	-0.094077356
75	0xbcd1434f	-0.02554479
76	0x3e8e39df	0.27778527
77	0xbdc866f2	-0.0978526
78	0xbc970dd7	-0.018439217
79	0xbe74d1c2	-0.23908141
80	0xbd801cc5	-0.06255487
81	0xbe1e2a9b	-0.1544594
82	0x3e9808b2	0.29694134
83	0x3e71a756	0.2359899
84	0x3dced0fa	0.10098453
85	0x3e95bbe9	0.29244927
86	0x3e2d7b05	0.1694146
87	0x3e96d75f	0.2946119
88	0x3e143f7e	0.14477345
89	0x3e81ddcd	0.25364533
90	0x3edc7a20	0.43061924
91	0xbdb32186	-0.087466285
92	0xbe5bc1f3	-0.21460705
93	0xbcdb4f5e	-0.026771244
94	0x3e1e3f70	0.15453887
95	0xbe619926	-0.22031078
96	0xbf0b2d14	-0.5436566
97	0xbcd08859	-0.02545564
98	0x3e363f16	0.17797503
99	0xbe7be191	-0.24597766
100	0xbe06d354	-0.13166553
101	0x3da23009	0.07919318
102	0x3ed81d2a	0.4220975
103	0xbb3d1892	-0.0028853756
104	0xbda1ec31	-0.07906378
105	0x3eb4688b	0.3523601
106	0x3d040acc	0.03223686
107	0x3e208379	0.15675153
108	0x3ea99f23	0.33129224
109	0x3e979a06	0.29609698
110	0x3e18ea47	0.1493312
111	0x3dc4f7b6	0.096175596
112	0xbd9abe4f	-0.0755583
113	0xbda7aea1	-0.08187605
114	0xbf19e660	-0.6011715
115	0x3dd23d2e	0.10265575
116	0xbe0c43d0	-0.13697743
117	0x3e72528e	0.23664305
118	0x3e3f5361	0.1868415
119	0x3df2712d	0.11837993
120	0x3d2c40c6	0.04205396
121	0xbe2251af	-0.15851472
122	0xbdcdc5d5	-0.10047499
123	0x3e6f5b8b	0.23374765
124	0x3d9ed202	0.077548996
125	0x3d35a8aa	0.044350304
126	0xbd6ad5a1	-0.05733264
127	0x3e916a82	0.28401572
128	0x3ecff701	0.40618137
129	0xbd060831	-0.032722656
130	0x3e4386be	0.19094369
131	0xbda1eab3	-0.079060934
132	0x3e71bf4b	0.23608129
133	0xbd9dd2c5	-0.07706217
134	0x381f88a7	3.803582e-05
135	0x3dc298e5	0.095018186
136	0xbc16df8e	-0.009208573
137	0x3e7ad24e	0.24494287
138	0xbe2d3ece	-0.1691849
139	0x3e3f49a0	0.1868043
140	0x3e755489	0.23958029
141	0xbed68e3e	-0.41905397
142	0x3eb491da	0.35267526
143	0x3d99fb35	0.07518617
144	0x3e6008dd	0.21878381
145	0x3ea8769b	0.3290299
146	0x3ebd2c23	0.36947736
147	0x3da848b9	0.08216996
148	0x3e692de1	0.22771408
149	0xbcef00d8	-0.029175207
150	0xbd436dbc	-0.047712073
151	0x3e84b3e7	0.25918505
152	0x3e04aaa2	0.12955716
153	0xbc66a424	-0.01407722
154	0x3a126c74	0.0005585619
155	0xbd8f68b9	-0.07002396
156	0x3e02195a	0.12704983
157	0xbddf230c	-0.108953565
158	0xbdeb8846	-0.115006015
159	0x3d9b099b	0.075701915
160	0x3ea83f00	0.32860565
161	0xbe005f89	-0.12536444
162	0x3e444948	0.1916858
163	0x3e59277e	0.21206471
164	0x3e87560b	0.26432833
165	0x3e0e4ff3	0.13897686
166	0x3dba174a	0.09086473
167	0x3e57e95c	0.21085113
168	0xbd91d540	-0.07120752
169	0x3e189832	0.14901808
170	0xbdea5a0f	-0.114429586
171	0x3b02ae40	0.0019940287
172	0xbe343ed7	-0.17602096
173	0x3e122c3f	0.14274691
174	0x3c8f67f4	0.017505623
175	0xbca8a757	-0.020587606
176	0xbcd07631	-0.025446983
177	0x3e7799fc	0.24179834
178	0x3e29c88e	0.16580412
179	0xbc7bbac0	-0.015364349
180	0xbd182008	-0.037139922
181	0x3eb0d244	0.3453542
182	0x3e97f9c1	0.29682735
183	0x3dd225b2	0.10261096
184	0x3d11ca0b	0.035593074
185	0x3e6f7f5d	0.23388429
186	0x3eee832e	0.46584457
187	0x3e810d19	0.25205305
188	0xbe72b876	-0.23703179
189	0x3ebae80d	0.36505166
190	0xbd66b5b7	-0.05632564
191	0xbc12429c	-0.008927014
192	0x3dc48985	0.09596542
193	0x3d977a21	0.07396341
194	0x3ea6c10c	0.32569158
195	0x3dc5d169	0.096590824
196	0x3e2e6ae5	0.17032965
197	0x3e612ca6	0.21989688
198	0x3e869848	0.26288056
199	0xbd7d9cb2	-0.061917014
200	0x3dee51e3	0.116367124
201	0x3e2b0266	0.16700134
202	0x3d78eb06	0.06077101
203	0x3c56ce83	0.01311076
204	0xbe6544af	-0.22389482
205	0x3e72a5e2	0.23696092
206	0x3e5fe683	0.21865277
207	0xbae11efa	-0.001717537
208	0xbd3dc9f2	-0.04633517
209	0x3dae10cc	0.084992975
210	0x3cac9891	0.021068843
211	0x3d466245	0.04843356
212	0x3d7e6a4e	0.0621131
213	0x3e0f1090	0.13971162
214	0x3d19d9e7	0.037561323
215	0x3ca68029	0.020324783
216	0xbcee7e2d	-0.0291129
217	0xbdb7220b	-0.0894204
218	0xbe7348c0	-0.2375822
219	0x3e8008de	0.25006765
220	0xbdf61d6a	-0.12017329
221	0xbcc80bc4	-0.024419673
222	0x3e5442e9	0.20728649
223	0x3d66dc9c	0.056362733
224	0x3e527eaf	0.20556138
225	0xbd6d1d58	-0.057889313
226	0xbd44b278	-0.048021764
227	0x3eaee911	0.3416219
228	0x3e824df1	0.2545009
229	0xbdcecec9	-0.10098035
230	0xbe05aa56	-0.13053259
231	0xbd019082	-0.031631954
232	0x3e17118f	0.14752792
233	0x3b46a478	0.0030310433
234	0x3d577ed8	0.052611202
235	0x3d35a69a	0.044348337
236	0xbe61a005	-0.22033699
237	0xbde9ce5e	-0.114163145
238	0xbe4f4a62	-0.20243219
239	0xbd12dcfd	-0.035855282
240	0x3e25897d	0.16165729
241	0x3d422039	0.04739401
242	0xbd9bcbac	-0.07607207
243	0xbdcc7884	-0.09983924
244	0xbd077ddf	-0.033079024
245	0x3d46c7fc	0.048530564
246	0xbdfab71c	-0.122419566
247	0xbe629fe3	-0.22131304
248	0xbda27d14	-0.07934013
249	0xbd4a5773	-0.049399804
250	0x3e45554b	0.19270818
251	0x3cd60a24	0.026127882
252	0x3d57871c	0.052619085
253	0x3e350f10	0.17681527
254	0xbe1dd19b	-0.1541199
255	0x3e7dfb97	0.24803005

input_layer.0.bias f4 [10]
0	0x3e9b6c16	0.303559
1	0x3efb8e79	0.49132136
2	0x3e7b5164	0.24542767
3	0x3e729053	0.23687868
4	0x3f19ffec	0.6015613
5	0x3eb33108	0.34998345
6	0x3f0d832d	0.55278283
7	0x3eada4f9	0.33914927
8	0x3edf5238	0.43617415
9	0x3ee5c1d3	0.4487444

hiddens.0.0.weight f4 [10, 10]
0	0x3e8b2479	0.27176264
1	0xbe7fb318	-0.24970663
2	0x3e5afc69	0.2138535
3	0xbf64a2f6	-0.8931116
4	0x3e78c1bc	0.24292654
5	0xbf08c067	-0.5341858
6	0x3f204bbd	0.6261557
7	0xbe0d1cb2	-0.13780478
8	0x3f4d1d15	0.801225
9	0xbe845b2a	-0.25850803
10	0xbda4334c	-0.080175966
11	0xbfa00c16	-1.2503688
12	0xbeb3e163	-0.35132894
13	0x3f3e59d6	0.7435583
14	0x3f25bd7a	0.64742243
15	0x3f006484	0.50153375
16	0xbea037f8	-0.312927
17	0x3f6245f1	0.8838797
18	0x3f1b0f97	0.60570663
19	0x3e690d51	0.22758986
20	0xbee8fba3	-0.45504484
21	0x3e125697	0.14290844
22	0x3f7b6a34	0.9820893
23	0x3e6ea3d9	0.2330469
24	0x3f4095ab	0.75228375
25	0xbf8c840d	-1.0977799
26	0xbf479350	-0.77959156
27	0x3ee93523	0.45548353
28	0x3f6c7c4d	0.9237717
29	0x3f81e838	1.0148993
30	0x3f86e795	1.0539423
31	0x3f8455d5	1.0338694
32	0xbeb9c9d4	-0.36286795
33	0x3f60e64b	0.878514
34	0x3f5a2c56	0.852239
35	0xbe64ce1d	-0.22344251
36	0x3ecf5f06	0.40502185
37	0xbf33ed39	-0.7028385
38	0xbef394b2	-0.47574383
39	0xbe307f7a	-0.17236128
40	0xb9ea886f	-0.0004473361
41	0x3f439fda	0.7641579
42	0xbf6585c7	-0.89657253
43	0x3f89ce0b	1.0766004
44	0x3f34197f	0.70351404
45	0xbe72e410	-0.23719811
46	0xbea3bb19	-0.31978682
47	0xbe7e8b52	-0.24857834
48	0x3f7852d4	0.97001386
49	0xbede1bbc	-0.43380535
50	0xbf55d50c	-0.8352821
51	0xbf8da5ab	-1.1066183
52	0xbebb4cd0	-0.3658204
53	0x3d56847f	0.052372452
54	0x3ccb0c13	0.02478603
55	0x3f3e1b61	0.74260527
56	0x3f31cd3c	0.6945379
57	0x3f3bae63	0.7331297
58	0x3f69822f	0.9121427
59	0x3c7cb31b	0.015423561
60	0x3eacac1a	0.33725053
61	0xbd703984	-0.0586486
62	0xbe53fc00	-0.20701599
63	0x3f5c8bc0	0.8615074
64	0x3e2600a2	0.16211179
65	0xbf202ec1	-0.6257134
66	0xbf0b99d0	-0.54531574
67	0xbdc45bfc	-0.09587857
68	0x3f2d0712	0.67588913
69	0x3f7bc740	0.98350906
70	0x3f8cf27d	1.1011502
71	0x3e076cfe	0.13225171
72	0x3f972133	1.1807007
73	0xbf71bfc1	-0.9443322
74	0x3f1fb191	0.6238032
75	0x3e462647	0.19350539
76	0x3f0daf18	0.55345297
77	0xbf6e9b89	-0.9320608
78	0x3d20eff5	0.03929134
79	0x3f2e965b	0.68198174
80	0xbcbd25a4	-0.023089238
81	0xbf394c28	-0.7238183
82	0x3d4c506b	0.04988138
83	0x3f5a77f3	0.8533928
84	0x3f233710	0.63755894
85	0x3f896176	1.0732868
86	0x3f006855	0.501592
87	0x3f7d70e5	0.9900039
88	0xbefbbef6	-0.4916913
89	0x3f34723f	0.70486826
90	0x3d4e318b	0.050340217
91	0x3f95e8d6	1.1711681
92	0xbf4f66d0	-0.81016254
93	0x3e19419c	0.14966434
94	0x3f1e1770	0.6175451
95	0x3e4f5de7	0.20250665
96	0xbdf945e6	-0.12171535
97	0x3eed4b61	0.46346572
98	0xbf6c8dce	-0.92403877
99	0x3f74c662	0.9561521

hiddens.0.0.bias f4 [10]
0	0x3ead5cda	0.33859903
1	0xbd99cb1e	-0.07509445
2	0x3e920a66	0.28523558
3	0x3e2ccaff	0.16874312
4	0x3e4c3492	0.19941929
5	0x3eecc191	0.4624143
6	0xbe6741a9	-0.22583641
7	0x3efd2307	0.49440786
8	0xbd5bb074	-0.053635076
9	0x3eef4824	0.46734726

hidden2.0.weight f4 [20, 10]
0	0xbea7e4d6	-0.32791775
1	0x3eae8439	0.34085253
2	0xbf413ff7	-0.7548823
3	0x3f2a57d3	0.6654026
4	0x3ec658cb	0.3873962
5	0x3df77a00	0.120838165
6	0xbf4d1958	-0.80116796
7	0x3e0a47ff	0.13504027
8	0x3e8a1cd1	0.2697511
9	0x3dea35c8	0.11436039
10	0xbe1fa152	-0.15588883
11	0x3ecdf049	0.40222386
12	0x3f83d567	1.02995
13	0x3f23c053	0.6396534
14	0x3f84fa5f	1.0388907
15	0xbf0419b4	-0.5160172
16	0x3f90a73f	1.130104
17	0xbe858b4c	-0.26082838
18	0xbeda1b1d	-0.4259881
19	0x3f7b5b73	0.98186415
20	0xbe3fe99f	-0.18741463
21	0xbf24746f	-0.64240164
22	0xbeb746dd	-0.35796252
23	0x3f1bf930	0.60927105
24	0xbf021031	-0.50805956
25	0xbed375aa	-0.41300708
26	0xbdc986bc	-0.09840152
27	0x3f48d386	0.7844776
28	0x3ee60659	0.44926718
29	0x3f34c04e	0.70605934
30	0xbf3703a7	-0.7148995
31	0x3ee42f0c	0.44567144
32	0x3c81f391	0.015863212
33	0x3e9eaa60	0.3098936
34	0x3f381d14	0.7191937
35	0x3c85b781	0.016322853
36	0x3e90c9a0	0.28278828
37	0xbf533081	-0.82495886
38	0x3f0e692b	0.55629224
39	0x3ef8a724	0.48565018
40	0x3ec7c6fe	0.39019006
41	0x3f31c1ba	0.6943623
42	0xbede38ea	-0.43402797
43	0xbeca8db8	-0.39561248
44	0xbd2aff62	-0.04174746
45	0x3f85d44e	1.0455415
46	0xbf0c5933	-0.5482361
47	0xbec51c0d	-0.38497964
48	0x3f5c5d40	0.8607979
49	0x3ec7857f	0.38969037
50	0xbf007c29	-0.50189453
51	0x3e28686b	0.16446082
52	0x3f4b60fa	0.7944485
53	0xbf44aab2	-0.7682296
54	0xbf0e9aa2	-0.557047
55	0x3ea4263e	0.32060426
56	0xbe80df09	-0.25170162
57	0xbd89b75e	-0.06724428
58	0x3f1f3bba	0.6220051
59	0x3f429cff	0.7602081
60	0xbeb86cc2	-0.36020476
61	0x3f24c466	0.6436218
62	0x3f708956	0.9395956
63	0xbeaa066e	-0.3320803
64	0xbf18be64	-0.59665513
65	0xbf3555c0	-0.7083397
66	0x3f77d382	0.9680711
67	0x3ec050e0	0.37561703
68	0x3f1275b7	0.5721087
69	0x3d000ac3	0.031260263
70	0x3e618371	0.22022797
71	0x3f14ef0b	0.5817725
72	0x3dfcc876	0.123429224
73	0x3bc2f844	0.0059500057
74	0xbe311209	-0.17292036
75	0x3f40135c	0.7502954
76	0x3f055a23	0.5209066
77	0x3eedc6e9	0.4644082
78	0x3f0d279d	0.5513857
79	0xbf5ccaa0	-0.8624668
80	0xbe3f990a	-0.18710724
81	0xbe57bd59	-0.21068324
82	0xbe13029c	-0.14356464
83	0xbd8b7bfd	-0.06810758
84	0xbe99af3c	-0.30016506
85	0x3d00afe1	0.03141773
86	0xbe88acb8	-0.26694274
87	0x3ce9132d	0.028451527
88	0xbe21d22c	-0.1580283
89	0x3e266c50	0.16252255
90	0x3e1f4a78	0.15555751
91	0x3d4de5d8	0.050268024
92	0xbd1af7b8	-0.0378339
93	0xbe3a19eb	-0.1817395
94	0x3e183c24	0.14866692
95	0xbe4b6d84	-0.19865996
96	0xbe40d966	-0.18832931
97	0xbbdde6c0	-0.0067718923
98	0x3cf57270	0.029961795
99	0xbdf21d64	-0.11822012
100	0xbec8e22f	-0.39235064
101	0x3c14757d	0.0090612145
102	0xbed2e18a	-0.41187698
103	0x3f86f436	1.0543277
104	0xbe9097fa	-0.2824095
105	0xbf1a6ab1	-0.6031905
106	0xbd4d20cf	-0.050080117
107	0x3f4a2796	0.78966653
108	0x3f1f2dfd	0.6217955
109	0x3f49ed63	0.7887785
110	0xbf2c5d2e	-0.6732968
111	0x3e6be1ba	0.23035327
112	0x3f2573ac	0.64629626
113	0x3f1ff428	0.6248193
114	0x3f7844e0	0.96980095
115	0xbe36cf05	-0.17852409
116	0x3f32b096	0.698007
117	0xbf02f999	-0.51162106
118	0x3ea0963c	0.3136462
119	0x3f2d6ef0	0.677474
120	0x3e85d642	0.26140028
121	0x3f44ab8f	0.7682428
122	0xbe146772	-0.14492586
123	0xbea13699	-0.31486967
124	0xbe01bf72	-0.12670687
125	0x3f2018fd	0.6253813
126	0xbf01b734	-0.5067017
127	0xbe409795	-0.18807824
128	0x3f0de616	0.5542921
129	0xbea95425	-0.3307201
130	0x3f72d4b4	0.9485581
131	0xbe843505	-0.258217
132	0x3c76ffd2	0.015075641
133	0x3ef5268c	0.4788097
134	0x3f11352c	0.5672176
135	0x3e857f80	0.26073837
136	0xbf08be93	-0.53415793
137	0x3f18c4e3	0.59675425
138	0xbe9e084b	-0.30865702
139	0xbe76e601	-0.24111177
140	0xbef5ef1f	-0.48033997
141	0xbe4023d5	-0.18763669
142	0xbf52124a	-0.82059157
143	0x3ede4ad3	0.4341646
144	0xbeca5243	-0.39515886
145	0x3eb712ad	0.35756436
146	0xbe10ab61	-0.14127876
147	0xbbc57e6f	-0.006027035
148	0x3ef0abf2	0.47006184
149	0x3f384870	0.7198553
150	0x3c75f1c0	0.015011251
151	0xbd8f76e8	-0.070051014
152	0xbdf8bf1a	-0.12145825
153	0xbe8c8ba6	-0.27450293
154	0x3d9b92c4	0.07596353
155	0xbc042ee0	-0.0080678165
156	0x3e9f1713	0.31072292
157	0xbe707946	-0.23483762
158	0xbdb046d4	-0.086072594
159	0xbe4c5d7e	-0.1995754
160	0x3f2b88bd	0.6700552
161	0xbeafb7dc	-0.3431996
162	0x3f5e76e8	0.86900187
163	0x3e264d62	0.16240457
164	0xbe1f68c8	-0.15567315
165	0xbe183ade	-0.14866206
166	0x3f16e511	0.5894328
167	0x3eb42336	0.35183114
168	0x3d21c41b	0.03949366
169	0x3f03ce62	0.5148679
170	0xbea938aa	-0.33051044
171	0x3f0fad2e	0.56123626
172	0xbe6365d6	-0.22206816
173	0x3f06444c	0.5244796
174	0x3f5130ed	0.8171528
175	0x3efdd2eb	0.4957498
176	0x3f5f8080	0.8730545
177	0xbf18b67e	-0.5965346
178	0x3f04b752	0.51842225
179	0xbeb6ee51	-0.35728696
180	0x3d840f3c	0.06448218
181	0xbd8289f3	-0.06373968
182	0xbe162467	-0.14662324
183	0xbec61871	-0.38690522
184	0x3da8ffcb	0.08251914
185	0xbea4b3e2	-0.3216849
186	0x3dff910a	0.12478836
187	0xbe57573e	-0.21029374
188	0xbcfcc31b	-0.030854752
189	0x3e00da27	0.12583219
190	0x3f48be30	0.78415203
191	0x3e5ba62b	0.21450107
192	0x3f8bb746	1.0915306
193	0xbf0a2149	-0.5395704
194	0xbdb3f516	-0.08786981
195	0x3f3fcf23	0.7492544
196	0x3eb01192	0.34388405
197	0x3f0bf96c	0.5467746
198	0xbd777c16	-0.060421072
199	0xbf178c74	-0.5919869

hidden2.0.bias f4 [20]
0	0x3d3f02df	0.046633597
1	0x3e38c5a3	0.18044142
2	0x3e3a099c	0.18167728
3	0xbe0da4c6	-0.13832387
4	0x3f007868	0.50183725
5	0x3eb824c3	0.35965547
6	0xbee25e9e	-0.44212812
7	0x3d13e89a	0.036110498
8	0xbe958963	-0.2920638
9	0xbea183a4	-0.31545746
10	0x3def9c15	0.11699692
11	0x3e5ac04c	0.21362418
12	0x3dcec962	0.100970045
13	0x3ef3d800	0.47625732
14	0xbe2bbffc	-0.16772455
15	0xbe3ebb08	-0.18626034
16	0xbd9fc8c2	-0.078019634
17	0xbee1316b	-0.43983015
18	0xbd6e754e	-0.05821734
19	0x3ed47923	0.4149867

output_layer.weight f4 [22, 20]
0	0xbf16cc63	-0.5890562
1	0x3e5579d2	0.20847252
2	0x3e883128	0.26600003
3	0xbdd6927e	-0.1047716
4	0xbeba2b3d	-0.36361113
5	0xbf1365df	-0.5757732
6	0x3e206030	0.15661693
7	0xbeadf390	-0.33974886
8	0x3d47b227	0.048753884
9	0x3e44f894	0.1923545
10	0x3e1b98fd	0.15195079
11	0xbd6b0163	-0.05737437
12	0xbf5fa236	-0.8735689
13	0xbf390ee5	-0.7228835
14	0x3edc84c1	0.43070033
15	0x3dc584fc	0.096445054
16	0x3d9fd84f	0.078049295
17	0x3e7cb391	0.24677874
18	0xbad4ea7f	-0.0016244202
19	0xbf261144	-0.64870095
20	0xbf91f8a3	-1.1404003
21	0x3f00a593	0.50252646
22	0x3e7c9334	0.24665529
23	0xbf90ff75	-1.1327959
24	0xbe9daebe	-0.3079738
25	0xbe60241e	-0.21888778
26	0xbe82ffb7	-0.2558572
27	0xbf197987	-0.5995106
28	0x3e134a4c	0.14383811
29	0x3be1d520	0.0068918616
30	0x3e2988b6	0.16556057
31	0x3eb8fecd	0.36131898
32	0xbf5d3518	-0.8640914
33	0x3d8f9399	0.07010574
34	0xbf936bd2	-1.1517279
35	0xbe520ade	-0.20511958
36	0x3e2e9a3b	0.17051022
37	0xbf8c5930	-1.0964718
38	0x3e19f81e	0.15036055
39	0x3d66978a	0.056296863
40	0xbf157978	-0.5838847
41	0xbf57f7cc	-0.84362483
42	0xbf55d1a5	-0.8352302
43	0xbe84e967	-0.25959322
44	0x3eba5f14	0.36400664
45	0x3e858dec	0.2608484
46	0xbf7e576f	-0.99352163
47	0x3e159f45	0.14611538
48	0xbdbc4435	-0.09192697
49	0xbd8aa59c	-0.06769869
50	0xbf2aed61	-0.6676846
51	0xbf4b4729	-0.79405457
52	0x3d7a63db	0.061130386
53	0x3ed8a6cb	0.42314753
54	0xbf4e04bb	-0.8047597
55	0xbe2adf5a	-0.16686764
56	0x3e47cd08	0.19511807
57	0xbf75ef6b	-0.9606845
58	0xbe57bbb8	-0.21067703
59	0x3f109a2a	0.56485236
60	0xbe451732	-0.1924713
61	0xbed6003a	-0.41797048
62	0xbed828c4	-0.42218602
63	0xbf7da562	-0.9908048
64	0x3d087563	0.033315074
65	0xbf63eb66	-0.89031065
66	0xbea67999	-0.32514647
67	0x3e829175	0.255016
68	0xbe2001b5	-0.15625651
69	0xbdd034f8	-0.10166353
70	0xbdc3ff68	-0.09570199
71	0xbeb2a535	-0.34891668
72	0xbdb7b613	-0.08970275
73	0x3ec62e10	0.38707018
74	0xbf832033	-1.0244201
75	0x3d991c3c	0.074760884
76	0x3e03419e	0.12818
77	0xbe2e9702	-0.17049792
78	0xbe631795	-0.22176965
79	0x3e8afd11	0.271462
80	0xbe990927	-0.29889795
81	0xbf1a18d0	-0.6019411
82	0xbf85c6f0	-1.0451336
83	0x3eab0614	0.33403075
84	0x3eb6dd51	0.35715726
85	0x3eab1e37	0.3342149
86	0xbf07656f	-0.5288915
87	0x3e6a659b	0.22890322
88	0xbda7cd7c	-0.0819349
89	0xbdb37310	-0.08762181
90	0xbeda3054	-0.42614996
91	0xbc76ebff	-0.015070914
92	0x3e3bda26	0.18344936
93	0xbf26f6a5	-0.652201
94	0xbe66a0c4	-0.22522265
95	0x3e4026bc	0.18764776
96	0xbf026d44	-0.50947976
97	0x3ebf1fb3	0.37328872
98	0xbdd9f845	-0.10643057
99	0xbe0e8d0d	-0.13920994
100	0x3f087a1b	0.5331132
101	0xbee366d2	-0.44414383
102	0xbd4bee24	-0.049787655
103	0x3e0c490f	0.13699745
104	0xbd897e14	-0.067135006
105	0xbf527b1a	-0.8221909
106	0xbf62a4b7	-0.88532585
107	0x3d538808	0.0516434
108	0xbe62fb6e	-0.22166225
109	0x3d3bd5d8	0.045858234
110	0x3e68aa81	0.22721292
111	0x3e80c646	0.2515127
112	0xbe91dd4d	-0.28489152
113	0xbe9bd164	-0.3043319
114	0x3ec0461f	0.37553498
115	0x3e301b14	0.1719783
116	0xbf09fc9a	-0.53901064
117	0x3ec535bd	0.38517562
118	0x3d0df936	0.034661494
119	0xbf41aaba	-0.75651133
120	0xbf36d042	-0.71411526
121	0x3ec9f3af	0.39443728
122	0xbf0064c6	-0.5015377
123	0xbc15225c	-0.00910243
124	0xbf24e524	-0.6441214
125	0xbfb9e613	-1.4523338
126	0xbcadc287	-0.021210922
127	0xbeb40b9c	-0.35165107
128	0xbb81c83d	-0.003960638
129	0x3d95c648	0.0731321
130	0xbd878e47	-0.06618934
131	0x3e80ec7a	0.25180417
132	0xbe48a415	-0.19593842
133	0xbe99d146	-0.30042475
134	0xbf100d5a	-0.5627037
135	0x3e0d5c48	0.13804734
136	0x3e1df074	0.15423757
137	0x3e9dfe7f	0.30858228
138	0x3c95a710	0.018268138
139	0xbe258659	-0.16164531
140	0xbfba2f81	-1.4545747
141	0xbee17df9	-0.44041422
142	0xbf9b2c3a	-1.2122872
143	0xbfa19733	-1.2624267
144	0x3e65f3f7	0.22456346
145	0x3f09912b	0.53737134
146	0x3e50e58d	0.20400067
147	0x3cd1fa7c	0.025632136
148	0x3e43ac6a	0.1910874
149	0x3b24bc40	0.002513662
150	0xbf4fbb46	-0.8114513
151	0xbe953625	-0.29142871
152	0x3e48c9b3	0.19608192
153	0xbebf99c6	-0.37422007
154	0xbf7977cf	-0.9744844
155	0xbe05e898	-0.13077009
156	0x3d825f50	0.06365836
157	0xbd8863fc	-0.066596955
158	0xbe869ea6	-0.26292914
159	0x3edb2aa3	0.42805967
160	0x3df4304e	0.11923276
161	0x3ed03602	0.40666205
162	0xbe193ff0	-0.14965796
163	0x3e1333db	0.1437525
164	0xbf031e98	-0.5121856
165	0xbf237973	-0.6385719
166	0xbf79d0a9	-0.97584015
167	0xbf309da3	-0.68990535
168	0x3e3c8a7a	0.184122
169	0xbdf51676	-0.11967175
170	0x3e21565a	0.15755597
171	0x3ed112e5	0.40834728
172	0xbe8814b6	-0.265783
173	0xbd00b68a	-0.031424083
174	0xbde35348	-0.11099869
175	0x3dd156ac	0.102216095
176	0xbe29c78c	-0.16580027
177	0x3ceb10ad	0.028694475
178	0xbe808486	-0.25101107
179	0xbe8b43c1	-0.2720013
180	0x3e21b150	0.15790296
181	0x3da8114c	0.08206424
182	0x3ec115ec	0.37712038
183	0xbf714f33	-0.94261473
184	0xbe4a4532	-0.19752958
185	0xbf0b43fe	-0.5440062
186	0xbf3c4769	-0.73546463
187	0xbf020199	-0.5078369
188	0x3b9ce580	0.0047881007
189	0xbc75e1e0	-0.015007466
190	0x3edb722a	0.42860538
191	0xbd49a19a	-0.04922638
192	0xbfacf9d0	-1.3513737
193	0x3e5bfb4d	0.21482582
194	0x3e99159e	0.29899305
195	0xbe11124b	-0.14167134
196	0x3c69ac21	0.01426223
197	0xbf439c2b	-0.7641017
198	0xbca6d7e0	-0.02036661
199	0xbf1034c6	-0.56330526
200	0x3d0201ba	0.031739928
201	0xbf874f6d	-1.0571114
202	0xbe2c47f3	-0.16824321
203	0xbf022811	-0.50842386
204	0x3ecda517	0.40165016
205	0x3e767dbd	0.24071403
206	0xbd9f74e6	-0.077859685
207	0x3d73dcf0	0.059536874
208	0xbd9914af	-0.07474648
209	0x3e5361dc	0.20642799
210	0x3d801e73	0.06255808
211	0xbebe1d6e	-0.37131828
212	0x3e2fad89	0.17156042
213	0xbebf72b9	-0.37392214
214	0x3eb21143	0.34778795
215	0x3c6bb8a0	0.01438728
216	0xbea8894e	-0.32917255
217	0xbe0a01d5	-0.13477261
218	0xbe13c7ff	-0.14431761
219	0xbe1a88c5	-0.15091236
220	0xbf2452fc	-0.64189124
221	0xbeacda68	-0.3376038
222	0x3ecf3363	0.40468892
223	0xbcd4fdaf	-0.025999872
224	0x3ed7b170	0.42127562
225	0x3f141238	0.578403
226	0xbeef3bbf	-0.4672527
227	0xbf6ab2fc	-0.9167936
228	0xbe2cdd13	-0.16881208
229	0x3e00a01e	0.1256108
230	0x3df4e59b	0.11957856
231	0xbdba9358	-0.09110135
232	0xbf79a7eb	-0.9752185
233	0xbf83a680	-1.0285187
234	0x3f019f28	0.5063348
235	0xbe325956	-0.17416891
236	0xbb7619f1	-0.0037552083
237	0xbf3c1cbd	-0.7348135
238	0xbdb43dac	-0.088008255
239	0xbf3319b4	-0.69961095
240	0xbed34a6f	-0.41267726
241	0xbf016036	-0.5053743
242	0x3e9c48fc	0.30524433
243	0xbf9b4eb2	-1.2133391
244	0xbeb12e53	-0.34605655
245	0x3e838722	0.25689036
246	0x3eea3045	0.45739952
247	0x3c244fca	0.010028789
248	0xbd6121ef	-0.054964002
249	0x3e3167ee	0.17324802
250	0x3ed0abaf	0.40755984
251	0xbe1fce7a	-0.15606108
252	0xbf01f689	-0.5076681
253	0xbe9f8ff4	-0.31164515
254	0xbe8d8b0d	-0.2764515
255	0xbcc50918	-0.024052188

output_layer.bias f4 [22]
0	0xbeb0e457	-0.3454921
1	0x3efcd82a	0.4938367
2	0x3ddaddcf	0.10686838
3	0x3d056b07	0.032572772
4	0x3e67225b	0.225717
5	0x3e34fb2b	0.17673938
6	0xbee16bb5	-0.44027486
7	0xbe0adcc7	-0.13560782
8	0x3e069076	0.13141045
9	0x3e78ad68	0.24284899
10	0xbd925d15	-0.0714666
11	0x3dffe70f	0.12495243
12	0xbe17d814	-0.14828521
13	0x3e268785	0.16262634
14	0x3e6abf69	0.2292458
15	0xbe8e5c7a	-0.2780493
16	0xbd6400dd	-0.055664886
17	0x3df3ad4b	0.118982874
18	0xbe7de459	-0.24794139
19	0xbe12857d	-0.14308734
20	0xbcce3dcf	-0.025175957
21	0x3e1b3200	0.15155792
