lang_classifier.model.pt (torch, 73755 bytes, 8 tensors)

input_layer.0.weight f4 [20, 820]
0.027646206 0.21444525 0.005083763 -0.045546476 -0.09213585 0.013284377 -0.07092022 -0.15937684
-0.012679826 0.0017611808 0.13708064 -0.18304214 0.006404066 -0.00903008 0.000808391 0.164132
0.16316257 0.136259 -0.2506317 -0.20494628 0.16984881 -0.12912798 -0.07322483 -0.038735494
0.011499277 0.18898666 -0.041258417 -0.11972951 -0.00019717071 -0.19691479 -0.16264747 0.17726485
0.0061199698 -0.07717272 -0.06957356 0.012863801 -0.06706515 0.072938494 0.063045055 0.03888514
0.26772723 0.32347524 0.25533253 0.1246611 0.05467298 0.12233707 0.121367894 0.18367778
0.10590296 0.23433097 0.054807603 0.027821159 0.021516928 -0.0668188 0.0636196 0.15392387
-0.034794334 -0.17637722 -0.03016767 -0.0791671 0.29068437 -0.05496536 0.0089602 0.08999249
-0.014515337 0.03745511 -0.05153487 0.00115848 -0.02222058 0.03887296 0.2095097 -0.08729579
-0.13237913 0.019698087 -0.09328738 0.15647261 -0.060515497 0.2734165 -0.12552595 0.04477486
-0.0011754045 -0.11018409 -0.16510312 0.049422465 0.22761646 -0.1262166 0.36064115 0.18865907
0.15116023 -0.109782405 0.040652268 -0.04392162 -0.23859991 -0.047483213 0.26446927 -0.020702781
0.051167328 0.15110917 0.05798421 0.008947696 0.028077982 -0.20112915 0.05179164 -0.07176978
-0.07606915 -0.30332267 -0.08640942 0.2018654 0.12504226 0.06691415 -0.11586231 -0.06367902
-0.20107143 0.028614182 0.21719252 0.21582331 0.21550967 0.08417029 0.13623862 0.00086506765
0.045138597 0.04226105 0.20858286 0.20689039 0.16046646 -0.06728398 -0.19126384 0.19450101
0.18410635 0.07960056 0.18748176 0.03713993 -0.019226694 0.053522687 0.17761976 -0.03510735
-0.15042223 -0.12560582 0.27556342 -0.1357594 -0.0578183 -0.00915094 -0.18892093 -0.005360731
0.13712993 0.048013497 -0.065220945 0.008128994 0.0030059838 0.070464686 -0.016974682 0.240996
0.2936956 0.17661493 0.09207872 0.2739367 0.16102558 0.1312528 -0.11536994 0.16674568
0.083149485 -0.20199323 -0.00593189 -0.06334405 0.053831507 0.10458374 0.12962729 -0.19111799
-0.14505148 -0.029508563 0.056018353 0.09806145 -0.05725275 0.2854803 -0.10409286 0.12395321
-0.014192717 -0.029708317 -0.042621084 -0.2828264 0.22875336 0.1616003 -0.1202265 -0.008451555
0.04927723 0.3579109 0.09513751 -0.0076442 0.1399201 -0.072118275 0.112657815 -0.08939494
0.04223981 0.25307357 -0.030538913 0.24475522 -0.10822696 0.2007491 0.09247118 0.033802837
-0.16344881 -0.22814609 0.0007307849 -0.11265487 0.015464502 0.092095464 -0.14890511 0.14168517
-0.057781924 -0.08509109 -0.108043715 -0.0883575 0.48866835 0.12260786 0.18099554 0.10880472
0.099265285 0.0922536 0.13227904 0.15493685 -0.19454761 0.10631942 -0.02868397 0.123843335
0.039914954 0.03221807 0.04928169 0.13445391 0.015722537 0.12894438 -0.19647548 -0.023943331
0.048534796 -0.1639768 -0.07865262 0.034526333 -0.015407275 0.072443634 0.10971717 -0.00861738
0.19475323 -0.027702387 -0.104022 0.116254196 -0.08534608 0.25731012 0.09783879 0.22839907
-0.14153953 -0.022082234 -0.25120243 -0.06284445 0.18509658 0.11116328 0.034056533 0.027965799
00000000: 4c7a e23c 8997 5b3e b295 a63b f18e 3abd
00000010: b8b1 bcbd b7a6 593c 9f3e 91bd af33 23be
00000020: 0bbf 4fbc 6cd7 e63a de5e 0c3e 666f 3bbe
00000030: 33d9 d13b e7f2 13bc 34ea 533a 3812 283e
00000040: 1714 273e 7b87 0b3e cc52 80be 70dd 51be
00000050: d9ec 2d3e 203a 04be e6f6 95bd 1ca9 1ebd
00000060: 7767 3c3c b885 413e 96fe 28bd bf34 f5bd
00000070: 9cbf 4eb9 08a4 49be 0f8d 26be eb84 353e
00000080: 078a c83b bb0c 9ebd 957c 8ebd b1c2 523c
00000090: 7459 89bd c760 953d c41d 813d 0646 1f3d
000000a0: 8b13 893e 8c9e a53e f2ba 823e 524e ff3d
000000b0: c6f0 5f3d dc8b fa3d bb8f f83d 0716 3c3e
000000c0: a7e3 d83d 75f4 6f3e f07d 603d 33e9 e33c
000000d0: 4544 b03c 4cd8 88bd fe4a 823d 389e 1d3e
000000e0: 8184 0ebd 3b9c 34be 3122 f7bc 5c22 a2bd
000000f0: 95d4 943e 5b23 61bd cdcd 123c fc4d b83d
00000100: bcd1 6dbc 886a 193d 3a16 53bd 23d8 973a
00000110: ef07 b6bc 4139 1f3d b689 563e 23c8 b2bd
00000120: 658e 07be e25d a13c 740d bfbd 5b3a 203e
00000130: 19df 77bd 3ffd 8b3e e089 00be d865 373d
00000140: 0810 9aba 32a8 e1bd cb10 29be 366f 4a3d
00000150: 4a14 693e ed3e 01be f5a5 b83e d82f 413e
00000160: bfc9 1a3e 99d5 e0bd fe82 263d 28e7 33bd
00000170: 8953 74be c27d 42bd 8468 873e e198 a9bc
00000180: d594 513d 5dbc 1a3e da80 6d3d 5b99 123c
00000190: cc03 e63c cdf4 4dbe 7923 543d 09fc 92bd
000001a0: 24ca 9bbd 1c4d 9bbe 6cf7 b0bd ceb5 4e3e
000001b0: 140b 003e 490a 893d 3849 edbd 256a 82bd
000001c0: abe5 4dbe 4a68 ea3c b767 5e3e c900 5d3e
000001d0: 91ae 5c3e 7961 ac3d 2382 0b3e b5c5 623a
000001e0: 40e3 383d ec19 2d3d bf96 553e 13db 533e
000001f0: 5251 243e 2fcc 89bd abda 43be 462b 473e
00000200: 6086 3c3e 9e05 a33d 38fb 3f3e 0a20 183d
00000210: 4d81 9dbc 9b3a 5b3d f4e1 353e bacc 0fbd
00000220: 4908 1abe d09e 00be a616 8d3e 8304 0bbe
00000230: e2d2 6cbd d3ed 15bc 7d74 41be 12a9 afbb
00000240: ca6b 0c3e cda9 443d 8f92 85bd 792f 053c
00000250: 0a00 453b ca4f 903d 7d0e 8bbc a8c7 763e
00000260: 455f 963e 8bda 343e c593 bc3d 6e41 8c3e
00000270: e4e3 243e 2267 063e 1347 ecbd 61bf 2a3e
00000280: 474a aa3d 50d7 4ebe 4d60 c2bb 86ba 81bd
00000290: 6d7e 5c3d 0030 d63d 04bd 043e 6fb4 43be
000002a0: 6088 14be f1bb f1bc 8073 653d 71d4 c83d
000002b0: dc81 6abd 792a 923e a32e d5bd 2edb fd3d
000002c0: 9288 68bc db5e f3bc 7293 2ebd 9fce 90be
000002d0: 523e 6a3e 8d7a 253e 5039 f6bd 6478 0abc
000002e0: ecd6 493d 1940 b73e 74d7 c23d 337c fabb
000002f0: 3747 0f3e bfb2 93bd 24b9 e63d b214 b7bd
00000300: a703 2d3d dc92 813e be2c fabc 1da1 7a3e
00000310: 19a6 ddbd 2c91 4d3e 8861 bd3d d874 0a3d
00000320: 205f 27be 219f 69be 2592 3f3a 99b7 e6bd
00000330: d35e 7d3c 8c9c bc3d 957a 18be eb15 113e
00000340: bdac 6cbd 3d44 aebd 0646 ddbd c7f4 b4bd
00000350: bd32 fa3e d419 fb3d e556 393e 02d5 de3d
00000360: 994b cb3d 75ef bc3d 2874 073e c4a7 1e3e
00000370: 7d37 47be ffbd d93d a5fa eabc 93a1 fd3d
00000380: dd7d 233d 18f7 033d 99db 493d 49ae 093e
00000390: 8dcc 803c ff09 043e de30 49be ce24 c4bc
000003a0: 6ccc 463d 89e9 27be a014 a1bd 7c6b 0d3d
000003b0: cc6e 7cbc 545d 943d 65b3 e03d e92f 0dbc
000003c0: 646d 473e 1ef0 e2bc 7d09 d5bd ae16 ee3d
000003d0: edc9 aebd 27be 833e b45f c83d 72e1 693e
000003e0: bdef 10be cde5 b4bc 9b9d 80be 97b4 80bd
000003f0: f589 3d3e 93a9 e33d dd7e 0b3d 8818 e53c

input_layer.0.bias f4 [20]
0.07249222 0.14457515 0.07094419 0.09593098 0.20418683 0.24330555 0.20883963 0.22255915
0.2643459 0.09001146 0.2572048 0.07471571 0.02691343 0.078638956 0.11280467 0.03742125
0.111796774 0.2155826 0.13178925 0.29506108
00000000: cd76 943d 820b 143e 304b 913d 7677 c43d
00000010: 5a16 513e 1725 793e 0eda 553e 8ce6 633e
00000020: 5958 873e ee57 b83d 59b0 833e 8d04 993d
00000030: 8e79 dc3c 760d a13d 2306 e73d 0647 193d
00000040: b5f5 e43d afc1 5c3e c3f3 063e 3f12 973e

hiddens.0.0.weight f4 [20, 20]
0.28610787 0.08132726 0.28730842 -0.068051666 0.050627135 0.4481732 -0.6156648 -0.108561315
0.29028663 0.52215654 0.3795728 -0.40612552 -0.22198184 0.1828647 -0.3022155 -0.41846842
0.20271227 -0.24411215 -0.31231683 0.2852806 0.12180201 0.085990906 0.3248986 0.38683575
0.0067592203 0.080985144 -0.23992859 0.2920212 -0.12157935 0.040465716 0.022132155 0.44657448
0.6498851 0.35487032 0.5746885 0.5503297 -0.11811029 -0.084487036 -0.0448502 0.11873438
0.38929105 -0.17888144 0.198855 0.4698033 -0.31293043 -0.2713819 0.1700714 0.3189863
0.21274751 0.3852865 -0.07580936 -0.0034608475 -0.27989218 -0.14037926 0.19735831 -0.04571301
0.27179497 -0.17026307 0.5341333 0.5319077 -0.014827629 -0.012913655 -0.16466373 0.11167954
0.026113102 -0.40349907 0.29035312 -0.030452546 0.1408087 0.10769244 -0.3257642 0.28779247
0.029972784 0.15654169 0.23046601 -0.030102538 0.23215497 -0.119544335 0.61769825 0.14232756
0.34713703 0.23644857 0.060970705 0.4350046 -0.29248348 0.38871145 0.22930843 -0.21225333
0.4975491 -0.5365298 -0.14615342 -0.56406456 -0.22689503 -0.57216513 -0.109421544 0.017921207
0.39767057 -0.18349387 0.58193177 0.45810598 0.53413564 0.32594645 0.35881746 0.55851215
-0.42975205 0.10363715 -0.13304 -0.2884483 0.20036703 0.027930574 -0.4053131 0.11953503
0.1510992 0.122453935 0.4083059 0.4124992 0.24187091 -0.017655889 0.3990989 -0.018057212
0.09871646 0.4039559 0.37202337 0.6560096 -0.22307545 0.20025696 -0.23603022 -0.27209097
0.10124344 0.06010887 -0.062173642 -0.38183993 0.010754292 -0.28927448 0.2103757 -0.02662544
0.4304912 -0.19761245 0.5552949 0.23555417 -0.52882075 0.051635623 -0.5752098 -0.5065029
0.56700945 0.04709363 0.2938313 0.46061686 0.12347908 -0.22117643 0.16714635 0.4565971
0.13841324 -0.08651081 0.37430963 -0.059293076 -0.43388206 -0.013862096 0.24683051 0.34360194
-0.14826179 0.8030858 0.29791588 0.43173143 0.16158004 0.31489885 0.5679893 -0.20002407
0.21429251 -0.35666987 0.24004653 -0.16576761 0.5821123 -0.1306022 0.26723358 0.4663617
-0.36700404 0.73302615 0.08397608 -0.37322557 0.15461983 -0.45471156 0.022569112 -0.24805024
0.1767118 0.2901746 -0.12120946 0.32807532 0.21869858 0.3210767 0.42003462 -0.404559
-0.45042667 -0.31206313 -0.32393342 -0.6940056 0.19740348 -0.121221825 -0.019313116 0.40537354
-0.48885942 -0.0038427738 -0.49514857 0.21690765 0.05552155 0.042696573 0.51142645 0.041610092
0.20451914 -0.11772407 -0.04830689 -0.38665497 -0.47653326 -0.18411574 0.072806515 -0.13554786
0.16781113 0.43319637 0.29468006 0.42453355 0.046809766 -0.5722068 0.091959886 -0.2903803
0.20369466 -0.07112027 -0.17617968 0.4075324 -0.2089013 -0.122060575 0.28561655 0.4326169
0.08385012 0.3324561 0.21383496 -0.375407 -0.15486743 -0.40856254 -0.10010902 0.22415283
-0.21021958 -0.051438686 -0.29688713 -0.24555418 0.59307486 0.16708368 0.16050895 0.44886324
0.15110707 -0.071840994 0.43534216 0.14192428 0.14030273 0.06269834 0.27144334 -0.0058844117
00000000: bb7c 923e e88e a63d 171a 933e ac5e 8bbd
00000010: 665e 4f3d f576 e53e 359c 1dbf 6555 debd
00000020: 73a0 943e 0dac 053f 5e57 c23e afef cfbe
00000030: 354f 63be e240 3b3e fdbb 9abe 7e41 d6be
00000040: ce93 4f3e 89f8 79be fee7 9fbe 4c10 923e
00000050: 5573 f93d 001c b03d 1c59 a63e 560f c63e
00000060: 737c dd3b 8adb a53d d7af 75be cd83 953e
00000070: 98fe f8bd 61bf 253d 7e4e b53c 69a5 e43e
00000080: df5e 263f 90b1 b53e c91e 133f 68e2 0c3f
00000090: cfe3 f1bd 8a07 adbd d8b4 37bd 032b f33d
000000a0: 2851 c73e b22c 37be a5a0 4b3e 0f8a f03e
000000b0: 6b38 a0be 92f2 8abe 3227 2e3e 2c52 a33e
000000c0: 7cda 593e 4644 c53e f041 9bbd 63cf 62bb
000000d0: 074e 8fbe 95bf 0fbe 4c18 4a3e 913d 3bbd
000000e0: b628 8b3e 7159 2ebe f6bc 083f 1a2b 083f
000000f0: 95ef 72bc cb93 53bc 9c9d 28be 3eb8 e43d
00000100: 25eb d53c 6e97 cebe 2aa9 943e 9e77 f9bc
00000110: 2830 103e db8d dc3d 91ca a6be 8959 933e
00000120: 7c89 f53c 774c 203e 48ff 6b3e 9999 f6bc
00000130: 08ba 6d3e a9d3 f4bd 7921 1e3f 51be 113e
00000140: f2bb b13e 931f 723e 6bbc 793d ecb8 de3e
00000150: 65c0 95be 3005 c73e d4cf 6a3e f058 59be
00000160: c1be fe3e 045a 09bf 3ea9 15be 8966 10bf
00000170: 2c57 68be 6a79 12bf 6718 e0bd 7fcf 923c
00000180: 7a9b cb3e d1e5 3bbe 7bf9 143f de8c ea3e
00000190: 1dbd 083f 74e2 a63e ecb6 b73e a7fa 0e3f
000001a0: 7608 dcbe b73f d43d a33b 08be 7faf 93be
000001b0: 042d 4d3e a9ce e43c 3385 cfbe c8ce f43d
000001c0: c0b9 1a3e 21c9 fa3d 790d d13e 1833 d33e
000001d0: 02ad 773e 15a3 90bc b156 cc3e b8ec 93bc
000001e0: db2b ca3d 4fd3 ce3e d979 be3e 3ff0 273f
000001f0: e46d 64be 2910 4d3e e8b1 71be 824f 8bbe
00000200: b858 cf3d b834 763d caa9 7ebd 8680 c3be
00000210: c532 303c c91b 94be ba6c 573e 981d dabc
00000220: 5869 dc3e eb5a 4abe ce27 0e3f 1d35 713e
00000230: cc60 07bf e07f 533d f340 13bf 2daa 01bf
00000240: 8827 113f 40e5 403d 0e71 963e f9d5 eb3e
00000250: 9ae2 fc3d 137c 62be 6a28 2b3e 18c7 e93e
00000260: 33bc 0d3e 942c b1bd 83a5 bf3e 4cdd 72bd
00000270: ca25 debe d81d 63bc 23c1 7c3e 98ec af3e
00000280: f0d1 17be 0897 4d3f 6e88 983e e70b dd3e
00000290: 3d75 253e 6c3a a13e bf67 113f 1cd3 4cbe
000002a0: 7f6f 5b3e 6f9d b6be c2ce 753e fcbe 29be
000002b0: 5005 153f 95bc 05be d7d2 883e f6c6 ee3e
000002c0: f4e7 bbbe 9aa7 3b3f a7fb ab3d 6c17 bfbe
000002d0: a954 1e3e f4cf e8be dce2 b83c e200 7ebe
000002e0: f0f3 343e c491 943e aa3c f8bd 7df9 a73e
000002f0: 85f2 5f3e 2a64 a43e c70e d73e 5b22 cfbe
00000300: 539e e6be bdc6 9fbe 9ada a5be 5aaa 31bf
00000310: 2324 4a3e 2643 f8bd 8a36 9ebc 1f8d cf3e
00000320: c84b fabe 0cd7 7bbb 1d84 fdbe 0a1d 5e3e
00000330: 916a 633d 9ae2 2e3d d8ec 023f 586f 2a3d
00000340: 776d 513e 5119 f1bd 72dd 45bd a4f7 c5be
00000350: 2bfc f3be d688 3cbe 951b 953d 0fcd 0abe
00000360: aed6 2b3e eacb dd3e 4ee0 963e 765c d93e
00000370: 99bb 3f3d 257c 12bf 7755 bc3d baac 94be
00000380: 5595 503e 81a7 91bd 7268 34be 16a8 d03e
00000390: 39ea 55be e5fa f9bd 553c 923e f67f dd3e
000003a0: 9db9 ab3d b037 aa3e 8df7 5a3e 5935 c0be
000003b0: 9195 1ebe 1c2f d1be f505 cdbd 5288 653e
000003c0: cd43 57be 5fb1 52bd 9701 98be 8e72 7bbe
000003d0: c1d3 173f fc17 2b3e 755c 243e 67d1 e53e
000003e0: d0bb 1a3e 5f21 93bd 2be5 de3e 9954 113e
000003f0: 85ab 0f3e fd67 803d 9ffa 8a3e 06d2 c0bb

hiddens.0.0.bias f4 [20]
0.04223849 0.10041722 0.35962418 -0.004049013 0.34368005 0.11383798 -0.11230381 0.33272803
0.14418994 0.27880895 0.080724776 0.0064331037 0.14150456 0.30280295 -0.07170849 -0.09399706
0.31463358 0.14443636 0.22646777 0.3042336
00000000: 4402 2d3d 8ba7 cd3d a920 b83e 95ad 84bb
00000010: d5f6 af3e e323 e93d 8aff e5bd 545b aa3e
00000020: 87a6 133e 0cc0 8e3e 0853 a53d c9cc d23b
00000030: 92e6 103e fd08 9b3e e7db 92bd 8881 c0bd
00000040: a717 a13e 20e7 133e 2be7 673e 82c4 9b3e

hidden2.0.weight f4 [30, 20]
0.14659542 0.0070188493 0.078651875 -0.12078226 -0.04295042 0.19025588 0.012614548 -0.2184403
-0.05057977 -0.18379112 -0.1597413 0.07417032 0.21058998 -0.08107437 0.10452363 -0.15641704
-0.09966183 -0.21787632 -0.18200433 0.1441795 0.056253787 0.13126402 0.0038247523 -0.1714393
-0.07683846 -0.21619801 -0.37957805 0.60382676 0.19141586 -0.083875164 -0.16995801 0.27786976
0.33615965 0.10577 -0.0036660626 0.051032558 0.39901593 -0.22781448 0.1130426 0.008076886
0.20816244 -0.03387372 0.15908672 -0.09565121 0.5212391 -0.14117533 0.05739451 0.4835911
-0.31113112 0.42120755 0.48665154 0.37593383 0.3584518 -0.041468203 0.13465945 -0.24986237
0.10614941 -0.29017305 -0.109909795 0.34684548 -0.0962024 0.047256522 -0.14994039 0.14851801
-0.124500535 -0.09987848 -0.056311283 0.10973178 -0.18278328 -0.07979908 0.18497398 -0.17574349
-0.08982708 -0.20213616 0.17559595 0.1808258 -0.20958984 -0.20709668 0.16419454 -0.029005388
0.16208574 -0.24038763 0.33671767 0.44051564 0.17770562 -0.18584101 -0.110338256 0.19632353
-0.56068283 0.13959906 0.17421596 0.24517176 0.4448053 0.1024554 0.51434034 -0.18806243
-0.074353345 -0.19354127 0.15963887 0.37057197 -0.2543072 0.14270414 0.38930467 0.43552032
0.29937968 -0.24696735 0.34649834 0.4935493 -0.43978703 0.052894246 0.38054153 0.59522945
0.31736606 -0.279786 0.4669085 0.18868376 -0.2789505 0.12188336 0.03240225 0.23356755
-0.14673574 0.09560482 -0.21461348 0.08285173 -0.45032364 -0.13207011 -0.646182 0.38888982
0.12117386 0.011130691 -0.33564496 0.49569386 0.35679415 -0.03870441 0.25650373 0.115241684
0.07234638 -0.059455093 -0.44577032 0.114274025 0.31373233 0.30341876 0.37492445 -0.17575872
0.3188039 0.5379421 0.62562585 -0.42888048 0.10695813 -0.2203514 -0.43816337 -0.012552206
-0.020246172 -0.20188527 -0.1305602 0.220882 -0.010718427 0.53284657 0.04180413 -0.31255835
-0.24490894 0.06680927 0.20389585 0.5514053 0.46019024 0.5063137 0.46650457 -0.18670325
0.3767587 -0.27634257 0.40704143 -0.16264057 0.05188069 -0.10214362 0.012608148 0.27647346
-0.17516723 0.39550743 0.39284927 -0.38057685 0.26135802 0.50711066 0.30974773 0.06062079
0.13338149 0.24580373 0.3543147 -0.5468772 -0.13607353 0.100503676 -0.51364976 0.065681376
-0.027441757 0.15188229 -0.25341767 0.38412902 0.407927 0.47799197 -0.21882515 -0.121634886
-0.35427752 0.11215013 0.0954772 0.57117283 0.26457092 0.43632367 0.38641238 0.38515845
0.04277362 -0.009722405 0.13417006 0.30775148 -0.035909723 -0.4049831 0.07031603 0.19912797
0.058043975 0.1418693 0.2268643 -0.29817137 -0.17989132 0.17476314 -0.0816659 -0.16477737
-0.036599517 -0.13512948 0.0813002 0.035470396 -0.15522742 0.05372691 0.13601887 -0.19376995
-0.033676505 -0.062395602 0.15658751 0.117844045 -0.15284467 0.028631628 -0.0031958371 -0.1702536
-0.19211683 0.4390341 -0.101501845 0.03184691 -0.22518916 0.030162586 -0.5830952 0.60462946
0.5775095 -0.14427806 0.091005534 -0.031415507 0.1778785 -0.03046259 0.058298662 0.37526423
00000000: 1c1d 163e 60fe e53b 3c14 a13d b15c f7bd
00000010: c8ec 2fbd 70d2 423e 40ad 4e3c d0ae 5fbe
00000020: bc2c 4fbd bd33 3cbe 3993 23be 9ce6 973d
00000030: e6a4 573e 520a a6bd 7c10 d63d ca2b 20be
00000040: 801b ccbd f81a 5fbe 585f 3abe caa3 133e
00000050: 5f6a 663d 136a 063e b2a8 7a3b c98d 2fbe
00000060: 7c5d 9dbd 0363 5dbe 0e58 c2be 6494 1a3f
00000070: 8502 443e bec6 abbd 7909 2ebe f244 8e3e
00000080: 1e1d ac3e f19d d83d 5342 70bb 8407 513d
00000090: d14b cc3e 3348 69be e182 e73d ea54 043c
000000a0: 8928 553e 2bbf 0abd a1e7 223e c8e4 c3bd
000000b0: ed6f 053f 4490 10be 8116 6b3d 4199 f73e
000000c0: 944c 9fbe 84a8 d73e 642a f93e 667a c03e
000000d0: ff86 b73e 90da 29bd 2be4 093e ecdb 7fbe
000000e0: dd64 d93d 9091 94be 6318 e1bd bb95 b13e
000000f0: c405 c5bd 0e90 413d f989 19be 1b15 183e
00000100: 23fa febd 178d ccbd a9a6 66bd 0ebb e03d
00000110: 8a2b 3bbe b36d a3bd d269 3d3e 1af6 33be
00000120: 43f7 b7bd c8fc 4ebe 6dcf 333e 662a 393e
00000130: b89e 56be 2711 54be 9d22 283e b59c edbc
00000140: cef9 253e 2d28 76be 4266 ac3e 448b e13e
00000150: 76f8 353e 1b4d 3ebe 06f9 e1bd 0909 493e
00000160: e988 0fbf 0ef3 0e3e ab65 323e 4e0e 7b3e
00000170: 85bd e33e 23d4 d13d cfab 033f 7093 40be
00000180: 9146 98bd af2f 46be 5f78 233e 9cbb bd3e
00000190: 8e34 82be 0921 123e f152 c73e 85fc de3e
000001a0: 4b48 993e 02e5 7cbe 3b68 b13e 7eb2 fc3e
000001b0: c42b e1be a3a7 583d 57d6 c23e f560 183f
000001c0: ce7d a23e 1c40 8fbe a20e ef3e 5136 413e
000001d0: 9ad2 8ebe fc9d f93d 39b8 043d 552c 6f3e
000001e0: e541 16be 76cc c33d a3c3 5bbe 2bae a93d
000001f0: d290 e6be 633d 07be 2f6c 25bf 911c c73e
00000200: 002a f83d 805d 363c a8d9 abbe 96cb fd3e
00000210: b9ad b63e 8488 1ebd 7554 833e d503 ec3d
00000220: 572a 943d 2f87 73bd 023c e4be 8008 ea3d
00000230: 86a1 a03e b459 9b3e 19f6 bf3e 18fa 33be
00000240: 443a a33e 93b6 093f 0429 203f 3996 dbbe
00000250: dd0c db3d cca3 61be f356 e0be c5a7 4dbc
00000260: 4ddb a5bc 03bb 4ebe 93b1 05be e42e 623e
00000270: 579c 2fbc a268 083f cf3a 2b3d a607 a0be
00000280: 69c9 7abe 4cd3 883d 13ca 503e e628 0d3f
00000290: 0e9e eb3e c69d 013f b0d9 ee3e 232f 3fbe
000002a0: 84e6 c03e c67c 8dbe bc67 d03e 408b 26be
000002b0: d980 543d ad30 d1bd 6892 4e3c ee8d 8d3e
000002c0: 0a5f 33be f37f ca3e 8a23 c93e f8da c2be
000002d0: b8d0 853e 01d2 013f 4197 9e3e 814d 783d
000002e0: 2895 083e f9b3 7b3e bd68 b53e 2500 0cbf
000002f0: dc56 0bbe dfd4 cd3d 8d7e 03bf f583 863d
00000300: 89cd e0bc 0887 1b3e f6bf 81be 8fac c43e
00000310: cfdb d03e 5dbb f43e b313 60be b61b f9bd
00000320: dd63 b5be f8ae e53d 8d89 c33d 6238 123f
00000330: d775 873e d165 df3e d8d7 c53e 7d33 c53e
00000340: 6433 2f3d b94a 1fbc e063 093e 9a91 9d3e
00000350: 1316 13bd f259 cfbe da01 903d 34e8 4b3e
00000360: 85bf 6d3d 3046 113e 1d4f 683e eba9 98be
00000370: 6e35 38be 1cf5 323e 7440 a7bd 66bb 28be
00000380: 60e9 15bd 625f 0abe b880 a63d 6849 113d
00000390: f0f3 1ebe c010 5c3d 8848 0b3e a16b 46be
000003a0: 60f0 09bd 8892 7fbd 7a58 203e 3858 f13d
000003b0: 5083 1cbe e08c ea3c 4071 51bb f656 2ebe
000003c0: 46ba 44be 14c9 e03e 33e0 cfbd e871 023d
000003d0: fd97 66be 8717 f73c ba45 15bf ffc8 1a3f
000003e0: aad7 133f a1bd 13be 1c61 ba3d 8cad 00bd
000003f0: c825 363e ae8c f9bc 94ca 6e3d a222 c03e

hidden2.0.bias f4 [30]
-0.1439789 0.029513 -0.07997876 -0.13630347 0.32477203 0.16981584 0.2452438 0.039930407
0.02374733 0.0808492 0.16203307 -0.024958178 0.21870612 0.24126904 0.032652646 -0.22873937
0.0061489134 0.19941995 0.018158881 0.035161577 0.29676333 0.2051374 -0.028810212 0.24304475
0.15019348 0.10592042 0.11585407 0.25484255 0.11350321 -0.08799235
00000000: 346f 13be 3fc5 f13c e7cb a3bd 2393 0bbe
00000010: 8548 a63e 34e4 2d3e 3121 7b3e 118e 233d
00000020: c389 c23c 4494 a53d ffeb 253e 1875 ccbc
00000030: 7ff4 5f3e 3b0f 773e c8be 053d a73a 6abe
00000040: d37c c93b be34 4c3e efc1 943c 9605 103d
00000050: 5df1 973e 8a0f 523e 6503 ecbc b9e0 783e
00000060: 52cc 193e ceec d83d e644 ed3d b97a 823e
00000070: 5f74 e83d 5535 b4bd

output_layer.weight f4 [7, 30]
-0.03004247 -0.101507574 0.14887632 0.14544657 0.043727137 -0.15625006 -0.5461054 0.03345328
-0.40041286 0.3001013 -0.5109175 -0.06736253 -0.62385076 0.16028559 0.094257206 0.004058441
-0.5803254 -0.63106984 0.02907024 -0.21812336 0.42202482 -0.21361586 -0.0568815 0.1917338
-0.36131522 0.41972923 -0.3985249 -0.2123479 0.0057756053 -0.39826795 0.10839701 0.16460584
0.15646413 0.060838338 -0.026417043 -0.1238446 -0.26261786 -0.42446014 -0.35602424 -0.57293135
-0.3063163 -0.16802472 0.23113479 0.44738436 -0.06398071 -0.07215538 0.52877086 0.19341132
-0.48459113 -0.54200226 0.114972524 -0.2813689 -0.42656142 0.29218075 -0.41357917 -0.03633518
0.2600635 -0.32423568 0.07704955 0.21820346 0.15759456 -0.11249806 -0.5269019 0.120570876
-0.30679554 -0.07032765 -0.5711012 0.31002912 0.19342063 0.18106739 0.28536147 -0.1653387
0.12110424 -0.41848227 0.116248935 -0.09888582 -0.27016005 -0.058997516 -0.7591733 -0.34642193
0.1271929 0.4254578 0.2761854 -0.5279629 0.02134282 -0.5338436 0.26305646 0.35307935
-0.46273413 -0.59190905 0.04779303 0.22341803 -0.3188521 0.06523809 -0.44426936 -0.7917021
0.3043468 -0.33014083 -0.14479856 0.03638737 -0.24543051 0.03504041 0.37752408 -0.48527527
0.08796087 -0.12485279 -0.16615649 0.33505803 0.009386631 0.6027318 0.01001644 -0.46801865
-0.13748723 -0.40367404 -0.69367164 0.031572506 0.16672899 0.1670122 0.19748665 0.2484405
0.025902823 0.21569848 0.20862857 -0.03641976 -0.034709223 0.3642218 0.54767936 -0.25807753
-0.51654226 -0.25182068 0.08876048 -0.17250697 0.16276658 -0.26058015 -0.02294603 0.14866343
-0.50605094 -0.39246675 -1.0727177 -0.24379714 -0.19842869 0.34729776 -0.052948657 -0.4672276
0.50750744 -0.023957234 -0.5213543 0.3050609 0.2652439 -0.6599124 0.113064855 -0.72923744
0.06546302 -0.056650627 0.112800054 0.4003977 -0.43263042 -0.39143464 0.3073299 -0.49704716
0.14116646 -0.05488555 -0.6248329 0.25580832 0.17700532 0.12994002 0.26778018 -0.49885443
-0.33605465 -0.23715621 -0.32583305 0.26292145 0.07611102 0.2840097 0.12860651 -0.46606335
0.15675703 -0.3121566 -0.58792835 -0.049629454 -0.14939934 -0.51081616 -0.15376157 -0.11548394
-0.4523279 -0.14502443 -0.36160067 0.37472558 0.34317282 0.13616545 0.22540942 -0.013202235
-0.2577466 -0.39226004 -0.10980917 -0.036797166 -0.30644664 0.23640206 0.38934493 -0.17686571
-0.34929684 -0.42180994 0.21885832 0.10489752 -0.5843842 0.17704792 -0.34001455 -0.6313205
-0.5393672 0.23742092
00000000: a01b f6bc 34e3 cfbd 0973 183e f2ef 143e
00000010: 3a1b 333d 0400 20be 90cd 0bbf 4e06 093d
00000020: ea02 cdbe e1a6 993e 7dcb 02bf 5ef5 89bd
00000030: afb4 1fbf e821 243e ec09 c13d acfc 843b
00000040: 3590 14bf cb8d 21bf b624 ee3c bb5b 5fbe
00000050: a313 d83e 1ebe 5abe 93fc 68bd de55 443e
00000060: 4ffe b8be c0e6 d63e 750b ccbe ba71 59be
00000070: 4a41 bd3b c7e9 cbbe 40ff dd3d 6f8e 283e
00000080: 2238 203e 9f31 793d 8e68 d8bc 3da2 fdbd
00000090: d975 86be d752 d9be cf48 b6be a1ab 12bf
000000a0: 7dd5 9cbe ac0e 2cbe 99ae 6c3e 900f e53e
000000b0: 5208 83bd 33c6 93bd 875d 073f 9e0d 463e
000000c0: 541c f8be a9c0 0abf b776 eb3d 960f 90be
000000d0: 4266 dabe b798 953e a6c0 d3be 33d4 14bd
000000e0: 0b27 853e 3802 a6be 28cc 9d3d ba70 5f3e
000000f0: 7860 213e 6265 e6bd 0be3 06bf dded f63d
00000100: 4e14 9dbe f107 90bd b033 12bf 23bc 9e3e
00000110: 0f10 463e bb69 393e e61a 923e 8c4e 29be
00000120: 8005 f83d 4f43 d6be ec13 ee3d a684 cabd
00000130: 6b52 8abe 61a7 71bd 2e59 42bf 375e b1be
00000140: db3e 023e 9bd5 d93e 2c68 8d3e 9428 07bf
00000150: 23d7 ae3c f9a9 08bf 56af 863e d1c6 b43e
00000160: 7deb ecbe 5a87 17bf a0c2 433d b2c7 643e
00000170: 9540 a3be 8c9b 853d 4677 e3be fdac 4abf
00000180: 58d3 9b3e 3808 a9be 1346 14be ec0a 153d
00000190: 2352 7bbe 8886 0f3d d64a c13e 0076 f8be
000001a0: d424 b43d d2b2 ffbd ed24 2abe ba8c ab3e
000001b0: 62ca 193c a24c 1a3f ff1b 243c 24a0 efbe
000001c0: 74c9 0cbe 5dae cebe 7794 31bf 2c52 013d
000001d0: 01bb 2a3e 3f05 2b3e f139 4a3e 3067 7e3e
000001e0: 2832 d43c 10e0 5c3e baa2 553e e32c 15bd
000001f0: 422b 0ebd 487b ba3e b734 0c3f bd22 84be
00000200: 1d3c 04bf a4ee 80be 0ec8 b53d aba5 30be
00000210: 48ac 263e c36a 85be 50f9 bbbc 3a3b 183e
00000220: 8e8c 01bf 67f1 c8be d04e 89bf f5a5 79be
00000230: e430 4bbe 03d1 b13e b1e0 58bd 7538 efbe
00000240: 02ec 013f f641 c4bc 7a77 05bf f130 9c3e
00000250: 0cce 873e 05f0 28bf 8c8e e73d 4eaf 3abf
00000260: 7a11 863d 7d0a 68bd b703 e73d ed00 cd3e
00000270: bc81 ddbe 1f6a c8be 585a 9d3e f77c febe
00000280: f18d 103e accf 60bd 0df5 1fbf 4ff9 823e
00000290: e240 353e ff0e 053e 7c1a 893e d969 ffbe
000002a0: 5b0f acbe 14d9 72be 97d3 a6be a49d 863e
000002b0: 18e0 9b3d b869 913e 6db1 033e db9f eebe
000002c0: ea84 203e fdd2 9fbe 7982 16bf 4148 4bbd
000002d0: 24fc 18be d9c4 02bf ac73 1dbe d882 ecbd
000002e0: 8697 e7be 4981 14be b923 b9be 08dc bf3e
000002f0: 59b4 af3e f56e 0b3e bad1 663e 304e 58bc
00000300: 5df7 83be 4fd6 c8be a1e3 e0bd a0b8 16bd
00000310: 93e6 9cbe 6213 723e 3858 c73e 491c 35be
00000320: 09d7 b2be 79f7 d7be 651c 603e 83d4 d63d
00000330: 349a 15bf 0d4c 353e 6316 aebe 389e 21bf
00000340: f813 0abf 781e 733e

output_layer.bias f4 [7]
0.06637355 -0.12136062 -0.0062142736 0.07564065 -0.1922931 -0.13405564 -0.017754586
00000000: dbee 873d eb8b f8bd 1ba1 cbbb 7ce9 9a3d
00000010: 7be8 44be e245 09be 1172 91bc
